ImageReconstructionandCompression/Task_3/linear_model_dog.pth (torch, 481614 bytes, 2 tensors)

linear.weight f4 [3, 40000]
0	0xbdb18fb1	-0.08669985
1	0x3e0386b6	0.12844357
2	0x3de3c13f	0.11120843
3	0x3e13fbdd	0.14451547
4	0xbb859424	-0.0040764976
5	0xbee3f659	-0.44523886
6	0xbd0fd0f8	-0.035111398
7	0xbe14187b	-0.14462464
8	0xbe9b5e94	-0.30345595
9	0xbe844e99	-0.25841215
10	0x3c979e9a	0.018508244
11	0xbd8863b9	-0.066596456
12	0xbd479dbf	-0.048734423
13	0xbdb37492	-0.087624684
14	0x3e4f1bc0	0.2022543
15	0xbe69b0c1	-0.22821333
16	0x3b9f29da	0.004857284
17	0x3c5fede7	0.01366756
18	0xbe936089	-0.28784588
19	0x3da5c2f2	0.080938235
20	0x3ce07da2	0.027403656
21	0xbdb85c37	-0.090019636
22	0x3d917bee	0.07103716
23	0xbd5879c9	-0.05285052
24	0x3d99ec78	0.07515806
25	0xbf7d32bb	-0.98905534
26	0x3c924082	0.017853025
27	0x3d0c823a	0.03430388
28	0x3e8c538d	0.27407494
29	0xbe40357c	-0.18770403
30	0xbcc1d411	-0.023660691
31	0xbbdc33f1	-0.006720059
32	0xbf772757	-0.965444
33	0xbe8af946	-0.27143306
34	0x3d97f981	0.07420636
35	0x3e0b6008	0.13610852
36	0x3e3b0874	0.18264943
37	0xb91629ad	-0.0001432064
38	0x3d9e545e	0.077309355
39	0x3d8b9de4	0.068172246
40	0x3e1de7ed	0.15420504
41	0xbe068b96	-0.13139185
42	0x3b275afa	0.0025536404
43	0xbdbddbca	-0.09270437
44	0xbd71f90a	-0.059075393
45	0xbeeab631	-0.45842126
46	0x3dd479d5	0.103748
47	0xbdb1ddcc	-0.086848825
48	0xbcc126b4	-0.023578025
49	0xbbf94bde	-0.007607921
50	0xbcbd2b8a	-0.02309205
51	0xbe0894d9	-0.13338031
52	0xbd79132c	-0.0608093
53	0x3d16faf6	0.03686043
54	0x3da55f8c	0.08074865
55	0x3e07f418	0.13276708
56	0xbb2a4b10	-0.0025984682
57	0x3dd7bc75	0.10533992
58	0xbe3303a7	-0.17481862
59	0x3ed9bc9d	0.42526713
60	0xbda6666c	-0.08125004
61	0x3eb8ac43	0.36068925
62	0x3e35465e	0.17702624
63	0xbd2d3955	-0.042291004
64	0xbe1f5159	-0.15558375
65	0x3e587437	0.21138082
66	0xbf0c5720	-0.5482044
67	0xbdabf6a0	-0.08396649
68	0x3ec11c16	0.3771674
69	0x3dcea8f4	0.10090819
70	0x3eafba4b	0.34321818
71	0x3e8dbb25	0.27681842
72	0xbe781534	-0.24226838
73	0x3e9a4a6f	0.30134913
74	0x3c2aa8c5	0.010416214
75	0xbe82de76	-0.2556035
76	0xbde22375	-0.11041919
77	0xbea862e8	-0.3288796
78	0x3ef1a64f	0.47197196
79	0x3d8e26f3	0.06941023
80	0x3dc180eb	0.09448417
81	0xbe31a309	-0.17347349
82	0x3e8ff77b	0.281185
83	0x3e2a7348	0.16645539
84	0x3b9c3250	0.00476674
85	0xbe0e51df	-0.13898419
86	0x3d1b6fb4	0.037948325
87	0x3f59aee9	0.85032517
88	0xbe917205	-0.28407302
89	0x3d3cc163	0.046082865
90	0xbe348cbd	-0.17631812
91	0x3bd53d28	0.0065075345
92	0xbda3c093	-0.07995715
93	0x3cbdaf80	0.023154974
94	0xbe382071	-0.17981125
95	0x3e2668f8	0.1625098
96	0xbe6f9fae	-0.23400757
97	0x3d40197d	0.046899308
98	0xbeae4834	-0.34039462
99	0xbd350db0	-0.044202507
100	0xbcfaa171	-0.03059456
101	0xbe1cd5a2	-0.1531587
102	0x3e21341a	0.15742531
103	0x3de65727	0.11247092
104	0xbd0a3fc9	-0.033752237
105	0xbb865007	-0.0040988955
106	0x3dc6830a	0.096929625
107	0x3dea0cd1	0.11428226
108	0x3d8240b5	0.06359998
109	0xbc050960	-0.008119911
110	0xbe07b8c1	-0.13254072
111	0x3d9a7ecc	0.07543716
112	0xbe78f1ae	-0.24310943
113	0x3cbbba75	0.022916058
114	0x3e8b22c8	0.27174973
115	0x3d1b98f2	0.037987657
116	0x3f39220b	0.7231757
117	0x3e74a33e	0.23890397
118	0x3be100ff	0.006866574
119	0xbd9cc360	-0.07654452
120	0xbe3f72ba	-0.18696108
121	0x3de9fa78	0.11424726
122	0x3e228b05	0.15873344
123	0x3c972440	0.018449903
124	0xbd957aa7	-0.07298785
125	0xbb861c42	-0.004092724
126	0x3ec51e3e	0.38499635
127	0xbd116981	-0.035501007
128	0x3e5590b7	0.20855986
129	0xbdf791f1	-0.12088383
130	0xbcfe43bb	-0.031038156
131	0x3f36df56	0.71434534
132	0x3e940645	0.28911033
133	0x3e0e91cf	0.13922809
134	0x3dcac835	0.09901468
135	0x3f97482c	1.18189
136	0xbc7a75e8	-0.0152869
137	0xbd901559	-0.07035322
138	0xbef7a143	-0.4836522
139	0xbdafdc3f	-0.085869305
140	0xbe1b5875	-0.15170462
141	0x3e3a9675	0.18221457
142	0xbd7c17cd	-0.061546136
143	0x3cc39751	0.023875864
144	0x3db96e16	0.090542
145	0x3daefece	0.08544694
146	0xbe425dca	-0.1898109
147	0xbe85a5b7	-0.26102993
148	0x3b445580	0.0029958189
149	0xbda7d441	-0.08194781
150	0xbe12f200	-0.14350128
151	0xbdb9d372	-0.09073533
152	0x3daed7b9	0.085372396
153	0x3b22c242	0.0024835025
154	0xbd3e2252	-0.04641945
155	0xbe492e87	-0.19646655
156	0x3eb2a3f3	0.34890708
157	0x3e0e69fe	0.1390762
158	0xbe03731a	-0.12836877
159	0xbe95ad97	-0.29234
160	0xbd9014b4	-0.07035199
161	0xbcb72534	-0.022356607
162	0xbe58c80c	-0.21170062
163	0xbdaebba8	-0.08531886
164	0xbd206fef	-0.03916925
165	0xbe9212d3	-0.28529987
166	0xbdd9fdfb	-0.10644146
167	0xbdb93520	-0.09043336
168	0x3d02efe9	0.031967077
169	0x3b9341cb	0.004493927
170	0xbd702f70	-0.05863899
171	0xbc86756f	-0.016413419
172	0xbfac6319	-1.3467742
173	0xbd0772c2	-0.033068426
174	0x3de609c5	0.11232332
175	0x3e92cba1	0.28670982
176	0x3eed4fa7	0.46349832
177	0xbcdf3590	-0.02724722
178	0xbc4db308	-0.012554891
179	0x3b8e9a04	0.004351856
180	0x3ebf1882	0.37323385
181	0xbbde30ae	-0.0067807054
182	0xbcb4307c	-0.021995775
183	0x3d73b0d6	0.059494816
184	0x3e0cec50	0.13762021
185	0xbd938530	-0.07203138
186	0x3dd14155	0.10217539
187	0x3f1f7732	0.6229125
188	0x3dc44d10	0.09585011
189	0xbd92c7c6	-0.0716701
190	0xbd8415ea	-0.06449492
191	0xbd4869eb	-0.048929136
192	0xba8c631c	-0.0010710689
193	0xbe041697	-0.12899242
194	0x3e7d459c	0.24733585
195	0xbd3da4a0	-0.046299577
196	0x3db4a879	0.08821196
197	0xbedeee24	-0.43541062
198	0xbf0d2f43	-0.5515024
199	0x3ea26be7	0.31722948
200	0xbda51545	-0.080606975
201	0xbc91d9fe	-0.017804142
202	0x3a8e9644	0.0010878523
203	0x3cfc548b	0.030802032
204	0x3f02e099	0.5112396
205	0xbde24156	-0.11047618
206	0x3dd51e62	0.10406186
207	0xbd9554e8	-0.07291585
208	0xbdcc1567	-0.0996502
209	0xbcd55eb5	-0.026046136
210	0x3d46110b	0.048356097
211	0x3d5f65ca	0.054540433
212	0xbe08f87a	-0.13376036
213	0x3e643ecf	0.22289585
214	0x3d69e97b	0.05710743
215	0x3d2e9e0c	0.042631194
216	0x3d687353	0.056750607
217	0xbdf437f3	-0.11924734
218	0xbdcaf8cf	-0.09910738
219	0x3f0576cd	0.521344
220	0x3b841789	0.004031126
221	0xbc54b270	-0.012981996
222	0x3d86f38d	0.065894224
223	0x3ea90faf	0.33019778
224	0xbd464b2f	-0.048411544
225	0xbd8bf220	-0.06833291
226	0x3dedb200	0.116062164
227	0xbe0dadfe	-0.13835904
228	0x3e2be556	0.16786703
229	0x3c952b29	0.018209057
230	0x3d10dffe	0.035369866
231	0x3c697f76	0.01425158
232	0x3c72a135	0.014808943
233	0xbb138e69	-0.0022515303
234	0xbd37fcec	-0.04491894
235	0xbd9c456e	-0.0763043
236	0xbb5da261	-0.003381871
237	0x3e6d080b	0.231476
238	0x3d22d746	0.039756082
239	0xbdd04718	-0.1016981
240	0xbe08a2db	-0.13343374
241	0xbebaf54c	-0.36515272
242	0x3cf3820b	0.029725095
243	0x3e5062d6	0.20350203
244	0xbe2d06a6	-0.16897067
245	0xbe8c2036	-0.27368325
246	0x3e50725b	0.20356123
247	0x3d85c187	0.06531053
248	0xbde45f69	-0.111510105
249	0xbe1a4970	-0.15067077
250	0x3d5a314a	0.053269662
251	0xbe7f384e	-0.24923822
252	0x3c5efe9d	0.013610509
253	0xbe1f388f	-0.15548919
254	0x3da78ec4	0.08181527
255	0x3d712452	0.05887253

linear.bias f4 [3]
0	0x3f28ce3a	0.65939677
1	0x3f061e2d	0.52389795
2	0x3ebbffc5	0.36718574
